checkpoint.pth (torch, 22566 bytes, 6 tensors)

fc1.weight f4 [64, 8]
00000000: 6376 5abd 9ded 283f 1bf5 9c3d 39de 713e
00000010: 8f7f 173c 7d7a a4bd 57b1 adbd 4288 513e
00000020: f211 7d3e 9480 60c0 0aba 8b3e 55b1 84be
00000030: 1af2 89be bb47 05be 343a 833e a58d 273d
00000040: e518 323f fecc c5bf 45de 80be 2218 eabe
00000050: 9c93 9d3e ed34 07bf f528 383c 29aa db3e
00000060: a376 25bf 5406 dcbf 745e cf3f 79f2 f63f
00000070: f432 583d a188 6bbe 25ea ea3e c18b 003d
00000080: 2fa1 7d3e f7ce a9be 145c 383e bb53 9a3c
00000090: 9b8c 64bd 3434 293f d03d ef3e 1dc0 77be
000000a0: b21e 0a3f b8b0 dd3e 876d 563d 05be 9f3e
000000b0: 2f20 c4be c18b a2bd 98d0 e73e 8bc0 0abe
000000c0: f5df 22be 4196 d6be c367 8dbe f5ab d6be
000000d0: bc5a c13d 1585 b93e 067d 723e 2468 a93d
000000e0: b21b 9b3e febe a9bd a1b2 0d3f 81e3 b9be
000000f0: bdeb bdbe b7ad 37be edb5 623e 850b 9e3d
00000100: a0a5 cc3d c1a7 c93c 2ee2 ad3e 7b20 413e
00000110: 7381 81bf 7e9f 3f3d 0577 e03e 8942 913e
00000120: 4388 683f a70e a9be 37f3 c9bc 62ad 1fbf
00000130: b54a 133e 9bd0 cb3e 0ffc c53d df6a 8b3e
00000140: b3e5 c0be 89fd afbe f5a9 38be 5e61 9cbe
00000150: dff0 d93d 51ea 063e bf4a ec3e ba8d 98be
00000160: efb9 4fbd 3400 1d3e e911 0bbc f2d1 b4be
00000170: dc89 1abf ba24 843f e8c2 c53e 25e0 94bf
00000180: 7db4 b3bd 271d 8bbe 9b15 afbf e20d bdbf
00000190: 0af8 0cbf 88b6 cbbb 132e 323e 9033 53be
000001a0: 9ae6 91bf 3888 d0be 404a 3bbf 366a c4be
000001b0: a5cf 78bd f69d 7bbe 1801 b83d 66c1 6a3c
000001c0: b3aa 96bf 11cf 95be d243 84bf 1371 0ebf
000001d0: 6e50 b63c 1571 d8bb fc06 b9be 13ba 5abd
000001e0: c7df 59bf b557 8cbf d90a 003e 622b 1abf
000001f0: 0a30 593e 353d 3e3e 7e43 07bb b79d 03bf
00000200: f4b5 7dbe 2cb8 cb3c 7896 5a3e 831b 553d
00000210: 8014 18c0 87e3 32be e5ad 813e 5c8e f73c
00000220: 61f3 fabc 0c76 a6be c125 bfbe aa10 15bf
00000230: 5c1a 71be 5d6b 36be 28af 0a3f d7a0 44bd
00000240: 9739 5dbb e1b7 ca3d 8d06 d03d abb5 e53e
00000250: 5fd3 dcbe e827 48be f524 dc3e eb37 283e
00000260: 7399 e33e 1fac 0cbf 7bb7 743f 7935 81bf
00000270: 73c6 10be d21d 25bd d158 243e 42cd 28bd
00000280: cca5 8f3f a7d4 4ebf 72bf 683f 778c 10bf
00000290: f7db e7be 3961 89bd bdf6 c53d 326c 2d3e
000002a0: 2188 cf3e c2d4 203f 0041 61bf 5d10 6dbf
000002b0: 6904 0e3f a5b1 27be dca2 e3be 44a6 1c3c
000002c0: 2b74 47be 80c2 77bc d3d1 a63f e33a 6dbf
000002d0: e581 0e40 d650 4a3e a799 ef3d b10f 1e3e
000002e0: ba06 a03e 21ab 833e ecaf 113f d85f 62bd
000002f0: f25a 74bf 1d55 4dbf 0d05 01bf d266 013f
00000300: a6fc 083f 02f1 43be c26a 9c3f aebf ddbe
00000310: 66aa f0be b1c4 4a3b 3427 ec3d 0dc8 8abc
00000320: 6790 743e 144a 89be c413 583f 799c 9fbe
00000330: 571f 5bbe dceb a4bc 4adf 42bf 62d1 29bf
00000340: 22db 8ebd 1a33 973e ce77 523d 4a67 01bf
00000350: 70af 533d cc32 ddbe ae58 44bf 6df9 6d3b
00000360: fef9 873e bef2 a73d b2e0 ac3f 2ca6 aabf
00000370: 7f87 dabe 646e 603e 7538 9bbe 44c9 c83d
00000380: 4ec6 d7bd eb1d 5f3c 6e88 a4bd 2189 603d
00000390: 01f7 cbbe ffc7 68bf 2b0d 0abf 042d 2b3f
000003a0: 35af 923e 2c1b 243f 90a3 953e 1378 e13e
000003b0: 8575 7bbf 99c9 be3d 4824 543e 903b 22bf
000003c0: 0cac b03a 4796 dbbe a3d5 253f b878 10be
000003d0: 498a 8fbe 093a d0bd 0d7c 36be fade b13e
000003e0: b0a3 8abd ca62 05be 5f9c 86bd 349b d9bf
000003f0: 80c1 933f e526 b5bd afb9 443e dfbd 3dbd
-0.05333556 0.6598757 0.07663938 0.23619927 0.009246721 -0.08031175 -0.084810905 0.20462134
0.24713877 -3.5078478 0.27290374 -0.25916544 -0.2694252 -0.13015644 0.25630343 0.040906567
0.69569236 -1.5453184 -0.25169578 -0.45721537 0.3077668 -0.52815133 0.011240234 0.4290326
-0.6463415 -1.7189431 1.62007 1.9292747 0.052782968 -0.23001339 0.45881763 0.03138328
0.24768518 -0.33165714 0.18003875 0.018838754 -0.055798154 0.6609528 0.46726847 -0.24194379
0.5395309 0.43298888 0.052350547 0.3119966 -0.38305804 -0.07936812 0.45276332 -0.13550012
-0.15905745 -0.4191151 -0.27618226 -0.41928068 0.09441134 0.36234346 0.23680505 0.082718164
0.30294567 -0.08288382 0.5535069 -0.36306384 -0.37093917 -0.1793736 0.22139712 0.07717041
0.09992528 0.024616124 0.33961624 0.18860047 -1.011763 0.046782963 0.43840805 0.28371075
0.9083292 -0.3301899 -0.024652107 -0.62373936 0.14383967 0.3980759 0.09667217 0.27229974
-0.37675247 -0.3437312 -0.18033583 -0.30543035 0.10641646 0.13175322 0.46150777 -0.2979563
-0.05071443 0.15332109 -0.008488157 -0.35316426 -0.60366607 1.0323708 0.38625264 -1.1630903
-0.0877466 -0.2717068 -1.3678468 -1.4769862 -0.5506598 -0.006216828 0.17400388 -0.20625138
-1.1398499 -0.40728927 -0.7316017 -0.38362283 -0.0607449 -0.24571976 0.089845836 0.014328336
-1.1770843 -0.29259542 -1.0333197 -0.5564129 0.022255149 -0.0066052773 -0.3613814 -0.05340011
-0.8510708 -1.0964266 0.12504138 -0.60222447 0.21209732 0.18578036 -0.0020639594 -0.5141253
-0.24776441 0.024868093 0.21346462 0.05202819 -2.3762512 -0.17469607 0.25327983 0.03021925
-0.03063363 -0.32511938 -0.3733349 -0.5822855 -0.23545212 -0.17814393 0.5417352 -0.04800495
-0.003375625 0.09898353 0.101574995 0.44865164 -0.43130013 -0.19546473 0.42996946 0.16427581
0.4445301 -0.54950136 0.9559247 -1.0094444 -0.14138202 -0.040311642 0.16049506 -0.041211374
1.1222472 -0.8079323 0.9091712 -0.5646433 -0.45285007 -0.06707997 0.09666202 0.16935804
0.40533546 0.6282464 -0.8798981 -0.92603093 0.5547548 -0.1637636 -0.4446019 0.009561125
-0.19477908 -0.015122056 1.3032783 -0.9266798 2.2266781 0.19757399 0.11699229 0.15435673
0.31255132 0.25716498 0.5690906 -0.055267185 -0.9545127 -0.80208 -0.5039833 0.50547516
0.5351051 -0.19134906 1.222008 -0.43310302 -0.47005004 0.003093999 0.11530915 -0.016941095
0.2388321 -0.2681433 0.8440516 -0.31174067 -0.21398674 -0.020131998 -0.7612196 -0.6633512
-0.0697539 0.29531175 0.051383786 -0.5054823 0.051680982 -0.43202817 -0.76697814 0.0036312
0.26557916 0.08200596 1.3506072 -1.3331962 -0.426815 0.2191711 -0.3031651 0.09804013
-0.105358705 0.013617973 -0.080338344 0.054818276 -0.39836887 -0.9093017 -0.5392634 0.66865563
0.28649297 0.6410396 0.2922635 0.44036922 -0.98226196 0.093157955 0.20716965 -0.63372135
0.0013479008 -0.4288809 0.6477911 -0.1410855 -0.2803519 -0.10167319 -0.17820759 0.3474043
-0.06769502 -0.13025966 -0.06572794 -1.7000489 1.1543427 -0.08845309 0.19211458 -0.046323653

fc1.bias f4 [64]
00000000: 5767 3d3f 2f17 8f3e 1b53 9b3e 48f6 bebe
00000010: 9d3a 053f 6ad3 d83d 72ab a83e fb8e 4f3e
00000020: c60e 01be dcc7 8fbd b0f0 0bbe cc60 bbbe
00000030: 2534 af3e bf27 a9bd 539f d33d 812e 19be
00000040: eca2 08bd 8978 2a3e 58dd 803e 24c0 cbbe
00000050: e899 81be 2f03 f53e 7986 983d 7133 2f3c
00000060: 8468 00bf a211 4d3e 776c bfbd 27fd c43e
00000070: 966b 0fbd 0468 e03d f658 3bbe f018 d33d
00000080: 1d3a 143f 8a38 483c 8d87 b6bc 8aae 173e
00000090: 7480 383f 5fe6 9ebe d7c9 263c a0e0 253d
000000a0: 19b5 d4be e591 913e 3fae 6abe 2b5a dfbe
000000b0: 1214 143e 9e5b 113e 3af6 113e 6d79 153f
000000c0: 9049 873e f265 513f ef58 463e 3992 c3be
000000d0: 1a55 1bbf 07f9 c7be 7873 943c 4a8f 84be
000000e0: 4554 dcbe 85ff a3be 2334 35bf 6ba6 0dbd
000000f0: 31fd f5bc 9f15 213f 84ac 073f 4b47 b7be
0.7398581 0.27947375 0.30336842 -0.37297273 0.5204256 0.10587199 0.32943302 0.20269386
-0.12603292 -0.07020542 -0.13666034 -0.36597288 0.3421947 -0.08259534 0.10333123 -0.14959146
-0.0333585 0.16647543 0.25168872 -0.3979503 -0.25312734 0.4785399 0.074475236 0.010693417
-0.5015948 0.20026258 -0.0934686 0.3847439 -0.03501471 0.109573394 -0.18295655 0.10307491
0.57901174 0.012220511 -0.022281433 0.14812675 0.72071004 -0.31035134 0.010179958 0.040497422
-0.41544417 0.2843162 -0.22918032 -0.4362348 0.14460781 0.14195105 0.14254084 0.58388406
0.2642331 0.8179618 0.19369863 -0.38197497 -0.6067673 -0.3905718 0.018121466 -0.2589057
-0.43033043 -0.32030883 -0.7078268 -0.034582537 -0.030027958 0.62923616 0.5299761 -0.3579658

fc2.weight f4 [64, 64]
00000000: 19bb 5e3e 688b 50bd 185f c0be 6563 ab3d
00000010: 818d 113d fcfd 34be 6871 743d 1bf1 893e
00000020: 68d3 2fbd 5b62 2d3e 8d2c b13e 9e12 b83e
00000030: 7652 84bd d0e6 753d f7b2 1e3f 3c50 693e
00000040: f7f9 03bd 1615 e73d c4e8 e6bc abcf b03e
00000050: fb7f bb3e f314 263e 96fe a53e baf4 c53d
00000060: 1331 933e f236 203e 2868 a0be f33b 8d3e
00000070: 609d b03e e897 3dbd 4e53 0d3e bb1b cdbe
00000080: 7f54 9f3e a6d5 2f3f 3a39 a3bd 67f0 033e
00000090: 1317 a6bd 0e04 103f cc78 233e a1d9 cbbd
000000a0: 137a 103e 865a 90be f06c 3dbe 6130 263f
000000b0: 8cc9 0abd 2a47 1fbe 1bcb 09be ce71 f43d
000000c0: b22f e13e 2600 4f3d b041 ef3e c7f0 15be
000000d0: 96d5 a33d 501f 463e 95f8 97be e818 2dbb
000000e0: 47f1 153f 9cd2 863e a80b d13e f996 713e
000000f0: 17e9 46be 6afb 91bd cb77 b93d 4386 103f
00000100: cd9f 03bf c2d4 c0bf 5326 a7bf 6d81 073f
00000110: 5699 8f3e d822 9a3e 1756 c73d b8b7 de3e
00000120: c7ed 253f 3301 e8bc d513 963e bc72 543d
00000130: e28a 643e 653d 193e 2a81 1e3f 969f 713f
00000140: ca12 b7be d90b 703e c84a 003e ddd3 913f
00000150: 66a6 e43e 18f0 8e3e 1310 64bf 44d3 babd
00000160: 00ec 9e3f 8ed2 b73e cc5e d7be 8679 bf3e
00000170: d34d df3b 8f7a f33e e771 0d3f 47c1 ccbe
00000180: ab40 983e 8c5e cdbe c04f 77bd 7e5b 24bf
00000190: 4b8b cf3e d4ef ca3e b98c 5e3e e5c5 e73d
000001a0: 101b cf3e 42e5 903e b96a 3abf ab20 833f
000001b0: 06d4 39be a4fc 8c3e e282 02be ee0b 1d3d
000001c0: c7a0 93be 4403 393e 7f02 f1ba 7960 bc3e
000001d0: 3701 393f 6232 8f3f fad3 64c0 2fc4 5fbe
000001e0: 1f8e 693f 364b 603f a2cb 893d 7aee d73e
000001f0: ac98 093f d200 b0be 17bf 443c be93 23be
00000200: 7fe6 a13c b92c 42bf 5f4b 02bf 5658 273f
00000210: 0cc3 6d3e 6e51 6cbe dd26 c3bc 4ed8 863e
00000220: 1bfd 703e ce69 303e 087c 003c fd56 c33e
00000230: 8025 a7bd 6179 0a3e 38fe 4a3f f780 4f3f
00000240: 929c 15bf e450 1f3e 745b daba 6770 8f3f
00000250: 992a 583f 47df c63e c777 8cbe 3b36 1fbb
00000260: 9eec 533f beb5 873d 6e6e eebe 8671 9d3e
00000270: e6ec 81bc ac79 983e 90fa 973e 5a56 1bbf
00000280: b580 25be 2417 81bf 37c7 83be ada8 49be
00000290: c2f8 95bd cd5a 7f3f 4528 723e 5c9f bf3e
000002a0: cfa6 44be 0b64 4cbe 5f3c 59bf 6ef2 723f
000002b0: 1992 ed3d 4907 853d d6f6 8dbe 114c 233e
000002c0: a32a 723e 06af 943d 3d12 653e 003e 8c3e
000002d0: 877d 133f d764 5b3f 3fbe 2cbf 37f5 ad3e
000002e0: 4401 2b3f 2655 233f cd8c 9c3d 8665 aebe
000002f0: 7841 78be 78c6 e5bb 0d54 463d f93b 54bf
00000300: b1ea 86be 6ce9 5bbf 6d89 4cbf 6fb7 593f
00000310: 5e84 c43e 0e9d dd3d 7277 80bd 6250 613e
00000320: 2f68 603e f0c3 073e 464c 243e c05a 703e
00000330: 5488 93be 0b58 4f3e c2ec 393f a35f 673f
00000340: 7c79 5cbf 8b22 fd3c 508d 653e 0c75 853f
00000350: 2120 783f 48ff e03e 73f4 1dbf a354 eb3e
00000360: a602 a33f 9db6 ae3e cc92 8cbb d01f ddbd
00000370: 73e2 dc3e 802b b53e f5fb 533e 437e a7be
00000380: 36c4 27bd 4650 adbe f9b9 06bf 8632 78be
00000390: 7d2e dc3d 9979 6c3f 4b6b a93e 818c e03e
000003a0: 40dd 143f da14 623e 43ba 6bbf 83e4 8d3f
000003b0: 6665 273e 05f4 b93d 75a5 003e f439 84bd
000003c0: b8b9 0b3f 2c0c eb3d 9822 e03e 4ad6 193f
000003d0: f1c1 113f 80d7 803f 292e f8be 54fa 183d
000003e0: 8136 2e3f c28c 2b3f e500 5b3e d42b ac3e
000003f0: a7ff b63e f24c 43be f7f7 a53d bf5b 213f
0.2175106 -0.0509142 -0.3757255 0.083685674 0.03553534 -0.17675012 0.059678465 0.2694176
-0.042926222 0.16932051 0.34604302 0.35951704 -0.06461041 0.060034573 0.6199183 0.22784513
-0.032220807 0.11283319 -0.028187163 0.34533438 0.3662108 0.16218929 0.32420796 0.096658185
0.28748378 0.1564596 -0.31329465 0.275848 0.34495068 -0.046287447 0.1380131 -0.4006022
0.31119153 0.68685377 -0.079698995 0.12884675 -0.0810987 0.56256187 0.15964049 -0.09953619
0.14109068 -0.28194064 -0.18498588 0.6491757 -0.033883616 -0.1555449 -0.13456385 0.11935769
0.439817 0.05053725 0.46729803 -0.1464263 0.07999723 0.19347882 -0.2968184 -0.002641255
0.58571285 0.26332557 0.40829206 0.23592748 -0.19424854 -0.071280316 0.09056052 0.5645487
-0.5141571 -1.5064929 -1.3058571 0.52931863 0.28046674 0.3010471 0.09733217 0.4349954
0.64815944 -0.028320884 0.29312006 0.05186723 0.22318605 0.14964826 0.6191584 0.94384134
-0.35756522 0.2344202 0.12528527 1.139278 0.44658202 0.27917552 -0.8908703 -0.09122327
1.2415771 0.35902828 -0.42064512 0.37397403 0.0068146973 0.47554442 0.55251926 -0.3999121
0.29736838 -0.40111196 -0.06037879 -0.64202106 0.4053596 0.396361 0.21733369 0.11317042
0.40450335 0.2829991 -0.72819096 1.0244344 -0.18147287 0.275365 -0.1274524 0.038341455
-0.288336 0.18067652 -0.0018387585 0.36792353 0.7226748 1.1187251 -3.575438 -0.21852182
0.91232485 0.8761476 0.06728293 0.4217413 0.53748584 -0.34375626 0.01200845 -0.15974328
0.01976323 -0.7584949 -0.5089626 0.65369165 0.23218936 -0.23077938 -0.023822242 0.26336902
0.23534052 0.17227861 0.007842071 0.38152304 -0.081614494 0.13522865 0.7929416 0.8105616
-0.5844203 0.15558201 -0.0016659335 1.1206177 0.8444 0.38842222 -0.27435133 -0.0024293798
0.82782924 0.066264614 -0.46568626 0.30750674 -0.015860032 0.29780328 0.29683352 -0.6067864
-0.16162379 -1.0085187 -0.25737926 -0.19693251 -0.073228374 0.99747926 0.23648174 0.3742627
-0.19204257 -0.19960038 -0.84857744 0.9490117 0.116001315 0.0649553 -0.27727383 0.15946986
0.23649077 0.072599456 0.22370239 0.27391052 0.57613415 0.85700744 -0.6747779 0.33976147
0.66798806 0.638018 0.07644043 -0.3406183 -0.24243724 -0.0070121847 0.04842 -0.8290401
-0.2635093 -0.8590305 -0.79897195 0.8504552 0.38382238 0.108209714 -0.062727824 0.2200332
0.21914743 0.13258338 0.16044721 0.23472118 -0.28814948 0.2024843 0.7262689 0.90380305
-0.8612287 0.03090026 0.22417188 1.0426345 0.96924025 0.43944764 -0.61701125 0.4596301
1.2735183 0.34123698 -0.0042899605 -0.107970834 0.43141517 0.3538475 0.20701583 -0.32713518
-0.040958606 -0.33850306 -0.5262752 -0.24238023 0.107510544 0.92373043 0.3308967 0.43857196
0.581501 0.22078267 -0.9208109 1.1085361 0.16347274 0.09079746 0.12563117 -0.06456366
0.5458026 0.11476931 0.43776393 0.60092604 0.56936556 1.0065765 -0.48472717 0.037348107
0.68051916 0.67011654 0.2138706 0.33627188 0.35741922 -0.19072321 0.08103936 0.6303062

fc2.bias f4 [64]
00000000: f42d 723e 8546 2c3e 0f02 473d 1a10 0cbd
00000010: 7003 da3e 52ef 973e 34a9 44be 0073 8b3d
00000020: 5369 08ba a4ca 38be c183 26be f068 89be
00000030: f5c2 a2bc 98cf 81be 2224 c33d 477c e53c
00000040: e89c e4bd edbf 35bd 30a5 1a3e 3194 593e
00000050: 05ec 0dbd 3356 fe3e 7df2 b83e 3d91 54bd
00000060: a4de 283d 75d1 9a3e 4ce5 90bc 8c09 2a3c
00000070: 99b0 ad3e bf2c 84be b114 1b3f 3621 55bc
00000080: 7cbf 3f3e 5349 7f3c 8928 47be b2e5 163b
00000090: ae47 2a3e c479 a7bd 8fc0 78bd 9f6a 913d
000000a0: d5ba 173f 3d39 11bd b612 fbbd bcac d6bd
000000b0: 3a07 403f 9baa a63e e34e 85bc 05fd 453f
000000c0: 3146 003e c018 623d 0a74 22be 0bf1 0c3f
000000d0: 3728 933e 1b0f ca3d 208f 983d 2a51 4dbd
000000e0: 10c2 1dbc 46ae 1bbf e66c f9be f195 1c3e
000000f0: c77f 92bc 3cb0 743c 061a 10be 7121 0a3f
0.23650342 0.16823776 0.048585948 -0.034195043 0.42580748 0.29674774 -0.19205171 0.06809044
-0.0005203683 -0.18046051 -0.16261198 -0.26837873 -0.019868353 -0.25353694 0.09528376 0.028013362
-0.1116274 -0.044372488 0.15102077 0.21247937 -0.034648914 0.4967514 0.36122504 -0.051896323
0.04122795 0.30237928 -0.017687462 0.010378253 0.33923796 -0.2581539 0.6057845 -0.013008406
0.18725389 0.015581447 -0.19449057 0.0023025093 0.16628906 -0.08177522 -0.060730513 0.071004145
0.5926946 -0.035454977 -0.12259428 -0.10482165 0.75011027 0.32552037 -0.016272968 0.773392
0.12526776 0.055199385 -0.15864578 0.550553 0.2874162 0.098661624 0.07449174 -0.050126232
-0.009628788 -0.60812795 -0.48715895 0.15291573 -0.017883195 0.014934596 -0.14072427 0.5395728

fc3.weight f4 [4, 64]
00000000: 3e93 22be b4c0 d1bf 4ad5 85be 808c 12bf
00000010: 07ed 1cbf 048d 32bd 20b2 f1be 9fa7 0b40
00000020: 704a 2dbf 02fb 383e 0c90 fdbe 20bb a5be
00000030: 01da 1abf 545b cb3e b1ce adbe fec2 c8be
00000040: 6082 abbc 272a b2be 9fbc d3bf 606c 4abf
00000050: 07f0 07bf 7f78 4240 2d33 8b3e 5f7b 3040
00000060: 920d cdbe 4617 8ebe 184d e1be 2ab4 0ebf
00000070: 6283 b5bc 52f9 a1bf 59b2 d73f 291e 20bf
00000080: b651 30bf a11e dbbe 8998 3abf bfd2 2dbf
00000090: 2676 4abf a3f1 503d 794d 86be 0706 55bf
000000a0: 20c9 a23f 73e6 aabe c060 89bd 6500 8e3c
000000b0: ee16 ed3f 62b9 42bf f593 cdbe e69a 803f
000000c0: d267 00bf 8c82 3cbf 7ced debe cf28 d33e
000000d0: 7bf3 69bf d7d4 1fbf 3ad8 0dbf 1230 18bf
000000e0: a6eb c0be 4bed c3be 0f15 c2be 5184 153f
000000f0: 4f6d dfbc 9526 14bf 4af0 e7bd a08d d23f
00000100: 28d2 adbe da80 02bf 7a71 26bf b3d1 eabe
00000110: 0a69 bebe 47b2 f5bc 3790 12bf d59b 1640
00000120: 5e40 81bf 7383 4c3d 4e46 0dbf b065 3bbf
00000130: f2b6 16bf e1f9 09bf 0d9f cfbe ab6b 06bf
00000140: 96d9 df3d 6a08 0cbf 6bd1 90bf d9b4 57be
00000150: b05d 11bf 1844 3a40 74f3 683f 54b5 2940
00000160: 11d6 0abf ec6c 2bbf 33be 23bf 7ae1 3ebf
00000170: 9f33 0abf 63ff 38bf 6afe d93f 8ed0 d8be
00000180: 7d61 4fbf d015 0ebf a40f aabe ae30 14bf
00000190: 1157 63bd 4629 b53d 5513 20bf 1c29 88bf
000001a0: aae9 af3f 25bb 09bf 62ce f43d da59 8cbd
000001b0: 20bd 9d3f 5723 d4be 4548 15bf 4ef9 983f
000001c0: ec1b 31bf 75a1 e5be 84b3 f2be a8f6 933e
000001d0: c110 b4be 2989 debe cf52 3dbf aed2 a03e
000001e0: cd6c 06bf d308 0abf 419f c3be 0eb4 563f
000001f0: f424 16bd 4513 f0be df8c db3c d357 e43f
00000200: 10e7 8b3e 391f 70bf 2a1c 99be 4998 16bf
00000210: c13e 3bbf 3f00 2d3f f22b 36bf 56f0 1a40
00000220: 4e57 5abf 134d 6e3f 5201 10bf a83e 7dbf
00000230: e3ec e7be cfa6 ac3f a05c 33bf 373f 3dbf
00000240: 6c2c 633d 3dc2 0abf 6f98 8fbf e279 34bf
00000250: 95ef 31bf 4cd2 2b3f 33fa 5cbf 4528 ef3f
00000260: b536 d4be d3c9 aabf 0f27 01bf 403c 03bf
00000270: 1b73 bc3e a93f 17bf 89e3 e33f 486c 21bf
00000280: 88d0 fabe 2b64 46be 446e 30bf 7cb0 1fbf
00000290: cf38 22bf 2a5c cabd 878a 9abf 180d 3ebf
000002a0: 8681 d73f e7ca dcbe e44b ce3d 3b65 cdbc
000002b0: 5785 343f 0bec 2abf 18a4 e0be fda1 bd3f
000002c0: 32a1 00bf f0ca 0bbf 7e47 07bf 025d a1bf
000002d0: 42ef 3cbf 8a4a 4fbf 5843 0bbf eb63 9d3e
000002e0: 91d7 0bbf e786 8abf e78b 5ebf 7084 7d3f
000002f0: 3843 bc3c 93cd 0cbf d995 6c3d ef6c da3f
00000300: ae29 223d 2c69 acbf c39d d5be ff6f 13bf
00000310: 2dcb 00bf 7b8d cf3e 9a65 c8be 5551 0f40
00000320: aa1e a0bf ad1f 4c3f 7507 22bf 47ab 0dbf
00000330: ff08 08bf f60b 613f 2e81 f4be ed62 82bf
00000340: e808 a43d 6996 08bf d385 fabe bbd8 15bf
00000350: 8caa 3fbf 81fc 5940 d253 7cbe 51f4 4540
00000360: 8437 e8be 0c9e 3e3e 4f94 00bf 5f60 03bf
00000370: 7a6f 8c3e bc9c 2bbf 2f6e 9c3f 50fc 85bf
00000380: 3498 5cbf 236d ffbe 5cc9 0cbf c447 24bf
00000390: 5be1 31bf d15a 46bd 31d4 2cbf 1677 a1bf
000003a0: 55e0 9d3f 7a17 04bf a205 bcbd a8a2 ef3d
000003b0: 304c b93f 329d 43bf 5785 1ebf ffae a43f
000003c0: 6a9a cebe ff7b 22bf 58ba 0fbf 8026 fe3e
000003d0: 3fee 25bf 5d11 66bf e6f7 35bf 444d 45bf
000003e0: 4371 08bf 33f6 64bd 0ce4 6abd 68e6 b9bc
000003f0: 94e5 c53d 20d2 10bf d89b cdbd 4bcb bd3f
-0.15876481 -1.6386933 -0.2613929 -0.57245636 -0.61299175 -0.043591514 -0.4720621 2.1821058
-0.6769171 0.18064502 -0.49523962 -0.32369328 -0.604889 0.39718115 -0.33946756 -0.39211267
-0.020936191 -0.34797785 -1.6541938 -0.7907162 -0.5310063 3.0386045 0.27187482 2.75753
-0.40049416 -0.2775213 -0.4400413 -0.5574366 -0.022157375 -1.2654212 1.6851302 -0.6254602
-0.6887468 -0.42796806 -0.72889 -0.678997 -0.7908653 0.051011693 -0.26230982 -0.8321232
1.2717628 -0.33378944 -0.06707907 0.017334173 1.8522623 -0.7606412 -0.40151945 1.0047271
-0.5015842 -0.736367 -0.4354056 0.41242072 -0.91387147 -0.6243414 -0.5540806 -0.5944835
-0.37679785 -0.38266978 -0.3790669 0.58405024 -0.027273802 -0.5787137 -0.113251284 1.644947
-0.339494 -0.5097786 -0.650169 -0.45863113 -0.37189513 -0.029992236 -0.57251304 2.3532612
-1.0097768 0.049930047 -0.551854 -0.7320204 -0.588729 -0.5389691 -0.40551034 -0.5250804
0.10930173 -0.5470034 -1.1313909 -0.21065082 -0.5678358 2.910406 0.9099648 2.6516924
-0.5423289 -0.66963077 -0.63962096 -0.745628 -0.5398502 -0.7226469 1.7030766 -0.42346615
-0.8100813 -0.55502033 -0.33215058 -0.5788678 -0.055502955 0.08845763 -0.625295 -1.0637546
1.3743184 -0.53801185 0.11953427 -0.06853075 1.2323341 -0.41433212 -0.583134 1.1951082
-0.6918323 -0.44849744 -0.47402585 0.2889912 -0.35169032 -0.4346402 -0.7395448 0.31410736
-0.52509767 -0.53919715 -0.3820744 0.8386849 -0.036656335 -0.468897 0.026800571 1.7839302
0.27324724 -0.9379764 -0.299043 -0.5882612 -0.7314263 0.675785 -0.71160805 2.420919
-0.85289466 0.93086356 -0.56252015 -0.9892373 -0.45297918 1.3488406 -0.7006321 -0.73924583
0.055462286 -0.54202634 -1.1218394 -0.7049848 -0.695062 0.6711776 -0.86319274 1.8684164
-0.41447988 -1.3342842 -0.50450224 -0.5126381 0.36806569 -0.5908151 1.7803813 -0.6305585
-0.48987222 -0.19374149 -0.6891825 -0.6237867 -0.63367933 -0.0988086 -1.2073525 -0.7423873
1.6836402 -0.43123552 0.10073069 -0.025072685 0.7051596 -0.66766423 -0.43875194 1.481506
-0.50245965 -0.54606533 -0.52843463 -1.2606509 -0.7380258 -0.8097311 -0.54399633 0.30740294
-0.54625803 -1.0822419 -0.86932224 0.9903021 0.022981271 -0.5500118 0.057760093 1.7064494
0.03959053 -1.3469596 -0.41721925 -0.5759277 -0.5031002 0.4053763 -0.39140016 2.239339
-1.2509358 0.79735833 -0.6329263 -0.55339473 -0.53138727 0.87908876 -0.47754806 -1.018644
0.08009511 -0.5335451 -0.48930225 -0.5853383 -0.7486961 3.4060366 -0.2464135 3.093037
-0.45354855 0.18614978 -0.502263 -0.51318926 0.274288 -0.6703603 1.2221125 -1.0467625
-0.86169744 -0.49887952 -0.5499475 -0.64172006 -0.6948449 -0.048426453 -0.6751128 -1.2614467
1.2334086 -0.5159832 -0.09180762 0.11700946 1.4476376 -0.76411736 -0.6192221 1.2865905
-0.40352184 -0.63470453 -0.56143713 0.49638748 -0.6481666 -0.89870244 -0.7108139 -0.77071023
-0.53297824 -0.055898856 -0.05734639 -0.022692874 0.09662929 -0.56570625 -0.100394905 1.4827665

fc3.bias f4 [4]
00000000: 80b9 253e 2622 febc a443 9f3e de29 da3d
0.16184044 -0.031022143 0.31106293 0.10652517
